…
        "colab": {
          "base_uri": "https://localhost:8080/",
          "height": 515
        }
      },
      "source": [
        "model.summary()"
      ],
      "execution_count": 80,
      "outputs": [
        {
          "output_type": "stream",
          "text": [
            "Model: \"sequential_2\"\n",
            "_________________________________________________________________\n",
            "Layer (type)                 Output Shape              Param #   \n",
            "=================================================================\n",
            "conv2d_6 (Conv2D)            (None, 148, 148, 32)      896       \n",
            "_________________________________________________________________\n",
            "max_pooling2d_6 (MaxPooling2 (None, 74, 74, 32)        0         \n",
            "_________________________________________________________________\n",
            "conv2d_7 (Conv2D)            (None, 72, 72, 32)        9248      \n",
            "_________________________________________________________________\n",
            "max_pooling2d_7 (MaxPooling2 (None, 36, 36, 32)        0         \n",
            "_________________________________________________________________\n",
            "conv2d_8 (Conv2D)            (None, 34, 34, 64)        18496     \n",
            "_________________________________________________________________\n",
            "max_pooling2d_8 (MaxPooling2 (None, 17, 17, 64)        0         \n",
            "_________________________________________________________________\n",
            "flatten_2 (Flatten)          (None, 18496)             0         \n",
            "_________________________________________________________________\n",
            "dense_4 (Dense)              (None, 256)               4735232   \n",
            "_________________________________________________________________\n",
            "dropout_2 (Dropout)          (None, 256)               0         \n",
            "_________________________________________________________________\n",
            "dense_5 (Dense)              (None, 3)                 771       \n",
            "=================================================================\n",
            "Total params: 4,764,643\n",
            "Trainable params: 4,764,643\n",
            "Non-trainable params: 0\n",
            "_________________________________________________________________\n"
          ],
          "name": "stdout"
        }
      ]
    },
    {
      "cell_type": "code",
…
